TD3/results/Walker2d-v2_0_ac.pth (torch_old, 867698 bytes, 16 tensors)

pi.l1.weight f4 [256, 17]
-0.1391589 -0.14807658 -2.0711868 -0.9802565 -0.25402814 1.5277051 0.744384 0.0894189
-0.01792856 0.09486882 0.043594826 -0.0484926 -0.030063879 -0.026400879 -0.006502373 0.0022828975
0.011681899 0.022947589 -1.3850615 -0.32497483 -0.091443755 0.047811862 1.097629 0.58962953
0.02847791 0.22295423 0.37681308 -0.21642774 -0.1117956 -0.099240236 -0.01233041 0.31055167
0.14288199 0.055749256 -0.6752311 0.45950022 -1.6156454 0.25107235 0.24947941 0.105667494
-0.23341203 -0.4121481 0.277943 -0.32670876 -0.09003759 0.033494927 0.07586276 0.0013263549
0.054693844 0.0121944 -0.020588817 0.7792513 -0.020963058 0.802067 0.58460045 -0.45415127
-0.7828607 -0.027592987 -0.6999198 0.074004054 0.29570162 -0.006573979 -0.04448342 0.040199317
-0.021297367 -0.038436733 -0.025904793 0.02667269 -0.48498505 0.08931529 -1.104328 -0.33534098
0.28204623 1.206355 -0.190654 0.5226703 0.3862949 -0.2436549 -0.015897196 -0.062875986
-0.07852464 0.008293315 0.21160781 0.061719157 0.016459156 -0.6014301 -0.121590674 -0.12491678
0.4261769 -0.40677124 -0.32569328 -0.09606593 0.3934881 0.0063985065 -0.2259893 -0.25717267
0.09852585 0.032884706 -0.1361379 -0.0035570487 0.11958458 0.034837704 -0.2558869 -1.1697729
-0.49413735 -0.20966938 0.39639267 -0.7571757 0.07905384 -0.15552948 -0.43885604 0.9397608
-0.18076766 0.11650839 0.0005288598 0.014176392 -0.0036378813 -0.02999303 0.026561284 -0.6464431
-0.52943695 0.666295 0.07446095 0.41968828 -0.40532133 -0.19452083 0.2208119 -1.0353533
-0.13718654 -0.17264159 0.052353624 0.04969491 0.013755668 0.116543934 0.07866314 0.015303116
0.22732791 0.96221316 0.06848935 1.1362693 -0.028728504 0.6061711 1.1705486 -0.0499107
-0.6804246 0.1941188 0.6981885 -0.1655447 -0.052491877 -0.036765903 -0.30807605 -0.17257462
-0.0051192143 -0.06087344 -0.17956701 -1.2332188 0.62634087 -0.94766396 0.41679338 -0.19949351
0.13467915 -0.018001098 -0.29184774 -0.10846702 0.061613042 -0.04600436 0.03569483 0.066517144
0.0054440447 -0.06304759 -0.003307821 -0.8517043 1.8497475 0.13827959 -0.22835265 0.097087696
0.3323517 0.0037569986 -0.027675938 -0.5368502 -0.029829362 0.012060387 -0.0020895784 -0.025862183
0.15217614 0.06681477 -0.059716646 -0.5409982 -0.68353945 -0.41467276 0.4204934 -0.6816811
-0.8683373 -0.375863 -0.5184908 -0.71948355 -0.31072056 0.24299665 -0.1260464 -0.09435388
-0.0051728548 0.0645363 -0.03575844 0.06983229 -0.37243056 1.6675239 -0.112763666 0.3078638
0.33780345 -0.13895665 -0.48599935 -0.18465894 -0.17035143 0.3958371 -0.097585306 -0.06337482
-0.017923612 0.0015062101 0.31063554 -0.011772773 0.031411253 0.08382776 0.41852698 0.4619958
-0.13614929 0.33923766 0.5256436 0.2949259 0.16294286 -0.45070216 0.44171986 0.2784419
-0.018106649 0.1407503 -0.008433634 -0.21673533 -0.21230592 -0.12624064 -0.7909547 2.37816
-0.11236515 -0.41400298 -0.022420425 -1.3393964 -0.31835443 -0.57871234 0.24409743 -0.28064337
-0.043163575 -0.033642426 -0.0108186435 0.005935001 0.08929746 0.014096812 0.0026026596 -0.36906317
00000000: ac7f 0ebe 63a1 17be 538e 04c0 17f2 7abf
00000010: fa0f 82be d78b c33f f38f 3e3f 4221 b73d
00000020: eade 92bc 954a c23d 7d90 323d 2da0 46bd
00000030: 8648 f6bc a846 d8bc dc11 d5bb aa9c 153b
00000040: 7065 3f3c 95fc bb3c b249 b1bf 1a63 a6be
00000050: dd46 bbbd 5fd6 433d 1b7f 8c3f f6f1 163f
00000060: 824a e93c 1d4e 643e a5ed c03e 3c9f 5dbe
00000070: 17f5 e4bd 773e cbbd 7d05 4abc a100 9f3e
00000080: a84f 123e 5559 643d f2db 2cbf 9d43 eb3e
00000090: 78cd cebf 8e8c 803e 8877 7f3e 3368 d83d
000000a0: 9003 6fbe 1305 d3be 8b4e 8e3e 5f46 a7be
000000b0: a165 b8bd fa31 093d ef5d 9b3d 16d9 ad3a
000000c0: a706 603d 05cb 473c e1a9 a8bc 037d 473f
000000d0: b8ba abbc 4354 4d3f 60a8 153f 8486 e8be
000000e0: 8f69 48bf b00a e2bc f22d 33bf 708f 973d
000000f0: 3466 973e 886a d7bb 3f34 36bd 0aa8 243d
00000100: d177 aebc d66f 1dbd 4a36 d4bc af80 da3c
00000110: f64f f8be efea b63d 9f5a 8dbf d0b1 abbe
00000120: 5d68 903e d769 9a3f cd3a 43be b9cd 053f
00000130: 72c8 c53e ac80 79be d63a 82bc 20c5 80bd
00000140: 87d1 a0bd afe0 073c b8af 583e 3acd 7c3d
00000150: 5ad5 863c 53f7 19bf 8804 f9bd 5ed4 ffbd
00000160: dc33 da3e 5244 d0be 45c1 a6be 37be c4bd
00000170: 4677 c93e 90aa d13b bd69 67be 23ac 83be
00000180: ecc7 c93d 1db2 063d bc67 0bbe 601d 69bb
00000190: c3e8 f43d fbb1 0e3d 9c03 83be 1ebb 95bf
000001a0: 92ff fcbe 92b3 56be fbf3 ca3e 44d6 41bf
000001b0: fbe6 a13d 1f43 1fbe bdb1 e0be 2a94 703f
000001c0: 281b 39be f39b ee3d 2ea3 0a3a 1944 683c
000001d0: 8569 6ebb f1b3 f5bc 0d97 d93c 4c7d 25bf
000001e0: 2e89 07bf 4f92 2a3f fc7e 983d 62e1 d63e
000001f0: 4786 cfbe 7830 47be 841c 623e 7586 84bf
00000200: a17a 0cbe f5c8 30be c170 563d e48c 4b3d
00000210: 745f 613c 96ae ee3d 241a a13d ecb9 7a3c
00000220: a6c8 683e 9a53 763f 2544 8c3d 4671 913f
00000230: 0a58 ebbc 072e 1b3f 89d4 953f 2a6f 4cbd
00000240: 4e30 2ebf 14c7 463e 7bbc 323f 8d84 29be
00000250: b901 57bd d897 16bd 25bc 9dbe 67b7 30be
00000260: 15bf a7bb 6e56 79bd 6ae0 37be 1dda 9dbf
00000270: e057 203f 1b9a 72bf f165 d53e 0748 4cbe
00000280: 55e9 093e 0a77 93bc 116d 95be f523 debd
00000290: f55d 7c3d 116f 3cbd be34 123d 243a 883d
000002a0: f563 b23b 181f 81bd 07c8 58bb 4b09 5abf
000002b0: 87c4 ec3f 2a99 0d3e 47d5 69be ead5 c63d
000002c0: 012a aa3e fa37 763b a6b8 e2bc 046f 09bf
000002d0: b55c f4bc ee98 453c 4ff1 08bb eedc d3bc
000002e0: 10d4 1b3e 2fd6 883d 7199 74bd dc7e 0abf
000002f0: 71fc 2ebf fd4f d4be e94a d73e a782 2ebf
00000300: 5a4b 5ebf 1d71 c0be d0bb 04bf 1330 38bf
00000310: c416 9fbe 1dd4 783e 4f12 01be 9b3c c1bd
00000320: 0d81 a9bb 9c2b 843d 7177 12bd 3b04 8f3d
00000330: 38af bebe 6c71 d53f a3f0 e6bd 53a0 9d3e
00000340: 93f4 ac3e a74a 0ebe e8d4 f8be 3c17 3dbe
00000350: 9b70 2ebe 29ab ca3e ceda c7bd a8ca 81bd
00000360: 8ad4 92bc 066c c53a 9f0b 9f3e 97e2 40bc
00000370: 16a9 003d e3ad ab3d 2b49 d63e b78a ec3e
00000380: b86a 0bbe 8fb0 ad3e 9490 063f 8700 973e
00000390: 7eda 263e 6fc2 e6be 1b29 e23e f08f 8e3e
000003a0: 6554 94bc d920 103e 3a2d 0abc deef 5dbe
000003b0: b966 59be 3a45 01be 027c 4abf c633 1840
000003c0: b31f e6bd 33f8 d3be 0aab b7bc 5771 abbf
000003d0: 5aff a2be 7e26 14bf adf4 793e 7db0 8fbe
000003e0: 4acc 30bd a4cc 09bd ae40 31bc 667a c23b
000003f0: 96e1 b63d 51f6 663c 6291 2a3b d9f5 bcbe

pi.l1.bias f4 [256]
0.037854996 -0.092164986 -0.006374936 0.14390899 -0.5125445 -0.5677007 -0.46535558 -0.7492545
-0.3422572 -0.3205466 -0.04967679 -0.4270658 0.15556376 -0.52197045 -0.35529172 -0.39884582
-0.59044075 0.06378566 -0.37753332 0.43582729 0.40766665 -0.7129294 0.096136205 -0.6632497
-0.3011146 -0.06869704 0.14697723 -0.6972629 0.04137443 -0.11910435 -0.049751423 -0.45132893
-0.10177563 -0.54976475 -0.45725566 -0.4644504 -0.12634103 -0.426821 -0.41350234 0.27261338
-0.41219068 -0.40491825 -0.33918208 -0.06553476 -0.21336417 -0.65847725 -0.037031867 -0.71002156
-0.8100255 -0.7351689 -0.04743522 -0.43699047 0.5882189 0.050813116 -0.39565033 -0.42817274
-0.2481514 -0.581856 -0.040877584 -0.54317963 -0.7775878 -0.46703961 -0.21405123 0.36543137
0.05501626 -0.28344455 -0.42779577 -0.63761955 0.013553824 -0.77682316 -0.3096538 -0.033355154
-0.0809228 -0.5987761 -0.21162632 -0.04751753 -0.44924793 0.19231874 -0.13254291 0.18365993
0.08523154 -0.11800413 0.14681268 -0.428372 -0.6632341 -0.2872241 -0.18579942 0.24768348
-0.20735525 -0.35042578 -0.5510753 -0.7073785 0.13195789 -0.089926854 -0.4424443 -0.14939389
-0.6442795 -0.46436414 -0.2583579 -0.56794953 0.022587948 0.017935602 0.059988532 -0.07392953
-0.56040925 0.021451144 -0.50122356 -0.42173532 -0.2891946 0.28236586 -0.3096164 -0.6195397
0.20572533 -0.13679548 -0.4056198 -0.64027154 0.19249001 0.34734097 -0.23253073 -0.51981765
0.105156705 -0.8870703 0.43244937 -0.78533757 -0.030185735 -0.14259663 -0.3679169 0.032028057
0.09108056 -0.62405926 -0.51173604 -0.35258922 -0.12023386 -0.5489444 0.08731334 -0.20910232
0.20194599 -0.51183337 -0.21863773 -0.45388338 0.13568227 -0.119443424 -0.07539554 0.23557428
-0.50721794 0.3496681 -0.024302877 -0.18187231 -0.19773644 -0.53623134 -0.23396389 -0.3480538
-0.5238061 -0.91044474 0.0791903 -0.5146341 -0.0009840564 -0.5291038 -0.54425305 -0.2811946
-0.27995607 -0.62651205 -0.093120635 -0.3333475 -0.3926105 0.19430505 0.13658687 -0.026578812
-0.5069083 -0.096029915 0.083675966 0.21749535 0.09678068 0.03961716 -0.15388493 0.07231446
-0.3988146 -0.16183093 -0.5296151 -1.1491399 -0.5014536 0.07982816 -0.1619061 -0.23535082
-0.30665484 -0.08652056 -0.533716 -0.42645654 -0.010074584 -0.38693377 -0.5483531 0.1109604
-0.16268574 -0.13759086 -0.45297277 -0.4444145 -0.3737612 -0.035011295 0.32732362 0.019416139
-0.2943053 -0.68517727 -0.3602601 -0.82414705 -0.75756013 -0.65378046 -0.4197027 -0.06382917
-0.59469444 -0.36021966 -0.12580095 -0.4712156 -0.4375183 -0.5142718 -0.26145226 -0.21901008
-0.21859457 -0.58411044 -0.31965712 -0.44295904 0.26341757 -0.44797158 0.13105379 -0.09850835
-0.1483187 -0.76442087 0.07154652 -0.21077077 -0.327305 -0.4050157 -0.37412703 -0.81711423
-0.26761127 -0.11775437 -0.18244636 0.27364427 -0.4058307 -0.33832967 0.31759214 0.33042744
-0.5243384 -0.46613237 -0.49501628 0.4199821 -0.27701274 -0.24661495 -0.5250425 -0.48562548
0.041656744 -0.06267613 -0.42774358 -0.4888099 0.22996172 0.020688266 -0.57988983 0.38712278
00000000: d70d 1b3d ffc0 bcbd d7e4 d0bb e15c 133e
00000010: 1e36 03bf d554 11bf 1643 eebe 25cf 3fbf
00000020: 563c afbe af1e a4be e479 4bbd 5ea8 dabe
00000030: 1b4c 1f3e db9f 05bf cce8 b5be 8535 ccbe
00000040: 2027 17bf 0ea2 823d 0c4c c1be c124 df3e
00000050: afb9 d03e 8b82 36bf 0fe3 c43d bbca 29bf
00000060: b12b 9abe 09b1 8cbd 3381 163e d27f 32bf
00000070: 3c78 293d fbec f3bd 26c8 4bbd 9614 e7be
00000080: be6f d0bd 62bd 0cbf 6a1d eabe 71cc edbe
00000090: 8b5f 01be 4888 dabe 94b6 d3be fb93 8b3e
000000a0: a80a d3be 7251 cfbe 46a9 adbe 1737 86bd
000000b0: 237c 5abe f791 28bf baae 17bd f9c3 35bf
000000c0: d55d 4fbf 0734 3cbf 6f4b 42bd 37bd dfbe
000000d0: 8495 163f 6a21 503d ae92 cabe 7539 dbbe
000000e0: 671b 7ebe 84f4 14bf 416f 27bd d20d 0bbf
000000f0: fe0f 47bf d11f efbe 3f30 5bbe d219 bb3e
00000100: bb58 613d a51f 91be 0c08 dbbe 093b 23bf
00000110: dc10 5e3c e2dd 46bf f18a 9ebe 6a9f 08bd
00000120: daba a5bd 6449 19bf 92b4 58be bea1 42bd
00000130: d303 e6be 34ef 443e 54b9 07be 5911 3c3e
00000140: e08d ae3d 26ac f1bd 1056 163e 9353 dbbe
00000150: b6c9 29bf 0a0f 93be 3442 3ebe bda0 7d3e
00000160: ef54 54be 026b b3be 4513 0dbf c216 35bf
00000170: f81f 073e 922b b8bd 0f88 e2be b6fa 18be
00000180: 80ef 24bf 23c1 edbe 7d47 84be 2465 11bf
00000190: 5c0a b93c afed 923c 89b6 753d 5e68 97bd
000001a0: fb76 0fbf 4fba af3c 3050 00bf b1ed d7be
000001b0: 5111 94be 4292 903e 0a86 9ebe 279a 1ebf
000001c0: a9a9 523e 1d14 0cbe 66ad cfbe d6e8 23bf
000001d0: 1a1c 453e add6 b13e 891c 6ebe c512 05bf
000001e0: 665c d73d 0a17 63bf 016a dd3e e20b 49bf
000001f0: 1348 f7bc da04 12be 9b5f bcbe da2f 033d
00000200: 7288 ba3d 59c2 1fbf 2201 03bf 9386 b4be
00000210: 2c3d f6bd 9f87 0cbf 56d1 b23d eb1e 56be
00000220: eeca 4e3e 8307 03bf 92e2 5fbe 6763 e8be
00000230: 4bf0 0a3e c19e f4bd fa68 9abd 623a 713e
00000240: 09d9 01bf b207 b33e d416 c7bc bc3c 3abe
00000250: 6c7b 4abe 7546 09bf 3b94 6fbe 1c34 b2be
00000260: 2818 06bf e812 69bf 862e a23d 0fbf 03bf
00000270: 74fb 80ba 5973 07bf 2b54 0bbf bdf8 8fbe
00000280: 6756 8fbe 1863 20bf 08b6 bebd 86ac aabe
00000290: 3e04 c9be e7f7 463e 6edd 0b3e cfbb d9bc
000002a0: bec4 01bf 55ab c4bd 4e5e ab3d 1ab7 5e3e
000002b0: f334 c63d 9a45 223d 0394 1dbe 9b19 943d
000002c0: 6d31 ccbe 02b7 25be db94 07bf 0417 93bf
000002d0: 435f 00bf f27c a33d b6ca 25be ceff 70be
000002e0: dd01 9dbe b131 b1bd 9da1 08bf 8358 dabe
000002f0: de0f 25bc 2f1c c6be de60 0cbf 353f e33d
00000300: 1797 26be 9ee4 0cbe 0cec e7be 4c8a e3be
00000310: a15d bfbe 0168 0fbd f696 a73e 980e 9f3c
00000320: 2faf 96be c767 2fbf 0374 b8be 4dfb 52bf
00000330: 76ef 41bf 285e 27bf 46e3 d6be deb8 82bd
00000340: e53d 18bf b66e b8be f7d1 00be 2c43 f1be
00000350: 6602 e0be 51a7 03bf 12dd 85be 2e44 60be
00000360: 41d7 5fbe 4388 15bf 19aa a3be 87cb e2be
00000370: abde 863e 885c e5be f732 063e bfbe c9bd
00000380: dbe0 17be 16b1 43bf fb86 923d 4bd4 57be
00000390: 8594 a7be 385e cfbe 948d bfbe 662e 51bf
000003a0: 5804 89be 3429 f1bd 38d3 3abe 1a1b 8c3e
000003b0: 0bc9 cfbe 8c39 adbe 709b a23e c92d a93e
000003c0: 0b3b 06bf e7a8 eebe c672 fdbe e507 d73e
000003d0: 9dd4 8dbe a188 7cbe 2f69 06bf e7a3 f8be
000003e0: 43a0 2a3d 585c 80bd 3501 dbbe 4b45 fabe
000003f0: 167b 6b3e 707a a93c a973 14bf f534 c63e

pi.l2.weight f4 [256, 256]
-0.103076056 0.225849 -0.2463149 -0.16449678 -0.07461795 -0.18289518 0.13593972 0.089174636
-0.23426229 0.25320768 -0.14993544 0.45864776 -0.115741976 -0.26002482 -0.51529026 -0.045190603
0.24679126 -0.18387197 0.59454703 0.006114922 -0.3918137 0.020332685 -0.5324092 0.3277334
0.23036171 0.14270948 0.041645605 -0.04717957 -0.052585687 -0.44863355 0.16716519 0.10059419
0.0748619 0.20746736 0.1865735 0.21198483 0.048955135 0.28215012 0.035484295 0.12737629
-0.21371916 -0.6023402 -0.30776164 -0.23973744 -0.05296931 -0.14468905 0.10233851 -0.04334556
-0.10515762 0.28086558 0.053898264 0.12076266 -0.26095316 -0.24200577 5.3794323e-05 0.20874006
0.16066606 -0.12721035 -0.11537569 0.020471293 0.22776766 0.122517765 -0.010222469 0.25068802
-0.33090892 -0.07536915 -0.54785275 0.043716017 -0.06603044 0.21348584 0.15338194 0.05498635
0.17676267 -0.49935958 -0.1427587 -0.31100598 -0.5699119 -0.023897704 -0.025728447 -4.0704945e-05
0.15810251 -0.26251468 -0.26977402 0.118503414 0.1434911 0.14250629 0.16204453 0.026367275
-0.023012415 0.021677354 -0.11614801 -0.06984121 -0.038387015 -0.16711076 0.07114756 -0.053904094
-0.05981295 0.12286345 -0.3094216 0.06448827 -0.10436049 -0.10099872 -0.35335767 -0.0919126
0.33810142 -0.2660218 0.21051808 0.39434487 -0.278603 -0.33926523 -0.124887735 0.21127492
-0.17361927 0.24605428 -0.12246108 -0.39936286 0.10964667 -0.48196113 -0.2547406 -0.22618455
0.099166185 -0.12454998 -0.046143156 -0.18133847 -0.20437388 -0.3705011 0.020235982 0.05935046
-0.21600014 -0.27891326 -0.35505372 0.026794884 0.04151944 0.2519685 0.11830223 0.025222342
-0.0608185 -0.10593397 -0.13692382 0.44350755 0.09771705 0.12828465 0.21783969 -0.24077687
-0.068557546 0.149875 -0.29678535 -0.4200538 -0.087767325 0.19067815 0.03336375 -0.42102075
-0.0008924829 -0.04057218 -0.11092357 0.079338 -0.37296757 -0.115917616 -0.10174863 -0.14162788
-0.30248803 0.120975316 0.21505341 -0.15652362 -0.031780154 -0.6279446 0.27480993 0.11074454
-0.16357556 -0.13204132 -0.10748564 -0.11523846 0.1545701 -0.1759878 -0.07005267 0.12966454
-0.025677217 -0.056072265 0.07650051 -0.31761193 0.09039594 -0.12507288 -0.3675894 -0.12930518
-0.28133568 0.12570037 0.0205174 0.15286332 0.10438378 0.54601425 0.18489364 -0.05131323
0.23476297 0.022279045 0.07874465 0.041713104 0.081154965 -0.08577652 0.21187574 -0.36259818
0.09439156 0.009779973 -0.31560016 0.08274418 -0.2335548 -0.062734924 0.07944838 0.15575661
0.2917576 0.041470204 0.24194008 -0.118161134 -0.004499417 0.29900542 0.3035595 0.1029828
-0.041273154 0.1976305 -0.036965422 0.14515235 -0.23235567 -0.32890552 0.12380403 -0.25183523
0.019978723 -0.033232376 0.018293407 -0.37499753 -0.105299495 -0.087318316 0.014340493 -0.02630075
0.2630606 -0.00490243 -0.05194098 -0.035009813 0.012363832 -0.007544103 -0.016890062 0.07658063
0.03900147 -0.29764724 -0.27567664 -0.38617843 -0.002055898 -0.09356156 0.28245735 -0.26802683
-0.22519699 0.067072466 -0.1286121 0.019457249 -0.22513919 0.049916305 -0.50355715 -0.14343785
00000000: 8a19 d3bd f644 673e f939 7cbe d871 28be
00000010: 4cd1 98bd e048 3bbe c833 0b3e 31a1 b63d
00000020: 74e2 6fbe 70a4 813e ad88 19be e1d3 ea3e
00000030: 210a edbd f921 85be 10ea 03bf c819 39bd
00000040: d9b6 7c3e ef48 3cbe 3c34 183f af5f c83b
00000050: ce9b c8be bb90 a63c f84b 08bf accc a73e
00000060: f1e3 6b3e 6f22 123e 9594 2a3d 5d3f 41bd
00000070: 1764 57bd 4cb3 e5be 5a2d 2b3e 5404 ce3d
00000080: 3251 993d 5372 543e 200d 3f3e 8d12 593e
00000090: 2e85 483d fb75 903e fb57 113d ee6e 023e
000000a0: 32d9 5abe f832 1abf ef92 9dbe bb7d 75be
000000b0: 59f6 58bd 5e29 14be da96 d13d 1d8b 31bd
000000c0: e15c d7bd 9dcd 8f3e 6dc4 5c3d 6a52 f73d
000000d0: a79b 85be 5cd0 77be 37a1 6138 f4bf 553e
000000e0: a585 243e 6e43 02be 174a ecbd 6ab3 a73c
000000f0: ed3b 693e 98ea fa3d 257c 27bc 2e5a 803e
00000100: e56c a9be 245b 9abd 1440 0cbf 910f 333d
00000110: f83a 87bd 089c 5a3e 2810 1d3e 5e39 613d
00000120: 4601 353e 0fac ffbe 562f 12be 2d3c 9fbe
00000130: bfe5 11bf 1ec5 c3bc 77c4 d2bc 9aba 2ab8
00000140: a0e5 213e 5368 86be d21f 8abe ebb1 f23d
00000150: 55ef 123e 2bed 113e 00ef 253e 2f00 d83c
00000160: 8884 bcbc b594 b13c 02df edbd e908 8fbd
00000170: b43b 1dbd 151f 2bbe d0b5 913d 8aca 5cbd
00000180: 6dfe 74bd d59f fb3d 826c 9ebe 6d12 843d
00000190: f4ba d5bd 6bd8 cebd 4ceb b4be ac3c bcbd
000001a0: a11b ad3e 0234 88be 0d92 573e 92e7 c93e
000001b0: 0da5 8ebe 2cb4 adbe 24c5 ffbd 7458 583e
000001c0: 40c9 31be a7f5 7b3e e0cc fabd 4a79 ccbe
000001d0: 6f8e e03d 9cc3 f6be 5c6d 82be ec9c 67be
000001e0: a417 cb3d 0f14 ffbd 9b00 3dbd cbb0 39be
000001f0: 6347 51be 52b2 bdbe eec5 a53c 7819 733d
00000200: 242f 5dbe b8cd 8ebe 9ac9 b5be f280 db3c
00000210: 4a10 2a3d 0402 813e 7148 f23d 169f ce3c
00000220: d21c 79bd e9f3 d8bd c235 0cbe 6c13 e33e
00000230: e01f c83d 0d5d 033e 5e11 5f3e 368e 76be
00000240: e667 8cbd d578 193e 40f4 97be 4b11 d7be
00000250: 5bbf b3bd 2241 433e 6da8 083d 0890 d7be
00000260: 83f5 69ba 042f 26bd e62b e3bd f67b a23d
00000270: 9bf5 bebe 3766 edbd 9661 d0bd e606 11be
00000280: b6df 9abe e8c1 f73d f636 5c3e ba47 20be
00000290: e82b 02bd fac0 20bf e3b3 8c3e 09ce e23d
000002a0: 5a80 27be d735 07be 6e21 dcbd 2402 ecbd
000002b0: a047 1e3e 2536 34be c677 8fbd c8c6 043e
000002c0: 0759 d2bc 08ac 65bd 4dac 9c3d 089e a2be
000002d0: 8221 b93d 1b13 00be ae34 bcbe 9468 04be
000002e0: 3b0b 90be 99b7 003e 1b14 a83c 3488 1c3e
000002f0: 2ac7 d53d 97c7 0b3f c254 3d3e d22d 52bd
00000300: b465 703e 8b82 b63c e044 a13d 5cdb 2a3d
00000310: 9334 a63d 9aab afbd f4f5 583e 78a6 b9be
00000320: 5d50 c13d 2e3c 203c 5896 a1be c875 a93d
00000330: fd28 6fbe 2b7b 80bd d5b5 a23d a97e 1f3e
00000340: 4161 953e a9dc 293d 24bf 773e 77fe f1bd
00000350: d86f 93bb 3d17 993e 276c 9b3e a5e8 d23d
00000360: 0a0e 29bd a65f 4a3e 0e69 17bd d1a2 143e
00000370: a5ee 6dbe 4e66 a8be f88c fd3d 8cf0 80be
00000380: 6baa a33c ac1e 08bd 0edc 953c adff bfbe
00000390: 43a7 d7bd f2d3 b2bd 63f4 6a3c ac74 d7bc
000003a0: e1af 863e 90a4 a0bb 11c0 54bd 7366 0fbd
000003b0: ac91 4a3c 8634 f7bb 075d 8abc 4ed6 9c3d
000003c0: 01c0 1f3d 3865 98be 7d25 8dbe 2eb9 c5be
000003d0: 3fbc 06bb 349d bfbd 409e 903e d03a 89be
000003e0: 0a9a 66be 4a5d 893d e4b2 03be cf64 9f3c
000003f0: e38a 66be 0a75 4c3d 1fe9 00bf 5fe1 12be

pi.l2.bias f4 [256]
-0.55420536 -0.02421844 0.11850978 -0.07440283 -0.02393528 -0.003144452 -0.005871796 -0.20323725
0.06994131 -0.05447351 0.054521047 -0.049359683 -0.3468452 0.0057708644 -0.24831997 -0.029976442
-0.2117828 0.025843091 -0.088614695 -0.08072539 0.002265734 -0.011405953 0.024833374 -0.077662475
0.09215587 -0.19898678 0.19665745 -0.6391843 -0.08161029 -0.09599473 0.05072758 -0.49060002
-0.048421722 -0.19105409 0.24822067 -0.7487148 -0.067198224 -0.043336984 0.2006089 0.0020964656
-0.2763536 -0.18542969 -0.28988564 0.23761466 0.113779254 -0.3806473 0.060347687 0.0051959795
-0.09353043 0.12491686 -0.04254637 -0.0711013 0.11551091 -0.014270548 0.019962158 -0.0049418085
-0.29969558 -0.7576212 0.26047626 -0.02750094 -0.047585778 0.12462277 -0.13302605 0.056782026
0.00852096 0.058894355 0.25551376 -0.10395919 -0.38456795 -0.40720853 -0.48039475 -0.02327137
0.08763859 -0.04646307 -0.34637535 0.03296144 0.13361333 -0.048210863 -0.0021189936 -0.094412655
0.0037502903 0.24336822 -0.4316038 -0.019765489 -0.08919667 0.24965255 -0.010026507 -0.06954523
-0.260513 0.2622137 -0.81282663 -0.013871928 -0.7447874 -0.08596972 -0.5419938 -0.0883046
-0.3282341 -0.049738865 -0.01976752 0.14517255 -0.043530308 -0.04936026 0.006473628 -0.21613367
0.053288676 -0.07409179 0.0002048279 0.07107269 -0.16021968 0.0075726304 -0.15429546 -0.043677196
-0.0017362818 0.0071969214 -0.072752915 -0.34158802 -0.05120328 -0.067660324 -0.02386879 -0.12874864
-0.07375731 -0.683953 -0.25219038 -0.56388414 -0.09425292 -0.2646401 -0.134775 -0.023708748
-0.35384554 -0.56585 -0.0018135159 -0.018019993 0.19817437 -0.4440604 -0.029324835 -0.020379553
-0.29723012 -0.5024759 -0.03795436 0.15474267 0.1433241 0.1621771 -0.05316018 0.005676219
-0.12827466 -0.25969505 -0.04459006 -0.54188615 -0.20497818 -0.26674703 -0.124674864 -0.096754506
-0.035186686 -0.020855006 0.02998544 -0.02127332 -0.028593544 -0.047913387 -0.13852347 -0.11096227
0.107082516 -0.06359291 -0.17645274 -0.067697175 0.13833116 0.2009713 0.20029338 -0.01887926
0.16512884 -0.16161373 -0.19364537 0.004863808 0.12084549 0.005244419 -0.02094433 -0.064403564
-0.24653001 -0.054400694 -0.38444883 0.009898595 -0.09424323 -0.08524076 -0.4651987 0.00043805494
0.047010876 -0.061728254 -0.107933044 -0.012926119 0.40323868 0.0016774308 -0.12801908 -0.06141617
-0.022784116 -0.055894013 -0.06866993 -0.03565921 -0.3537894 0.027707161 -0.083902985 0.007604957
-0.15973756 -0.60085493 -0.33258766 0.2438894 -0.04484398 -0.10280959 -0.15701912 -0.06993884
0.18101707 -0.39920455 -0.30689147 0.0120180445 -0.011517201 0.12709552 -0.61762065 -0.01148592
-0.06672869 -0.31905127 -0.306304 -0.31975314 0.0026338673 -0.21108982 0.120543614 -0.33030275
-0.097174905 -0.022456668 -0.24182296 0.022372408 0.16120929 0.108491205 -0.1407315 -0.028475808
-0.007478377 0.08967368 0.03877139 -0.29705283 -0.07252193 -0.0747839 -0.6224848 -0.31544435
-0.22109239 -0.25222123 0.15380561 -0.173441 -0.11011507 -0.14241214 -0.12263354 -0.01511082
0.20341721 -0.32242668 -0.6427991 0.36947232 -0.23804665 0.21760887 0.19636779 -0.5498679
00000000: 67e0 0dbf c065 c6bc 41b5 f23d 8360 98bd
00000010: ec13 c4bc 2713 4ebb 3268 c0bb 6d1d 50be
00000020: 643d 8f3d 9d1f 5fbd 7651 5f3d 612d 4abd
00000030: b295 b1be 8519 bd3b 9747 7ebe 2891 f5bc
00000040: 97dd 58be e4b4 d33c 9f7b b5bd 5a53 a5bd
00000050: b57c 143b 09e0 3abc 5c6f cb3c 810d 9fbd
00000060: 37bc bc3d 31c3 4bbe 9260 493e 95a1 23bf
00000070: 4c23 a7bd e398 c4bd b9c7 4f3d ed2f fbbe
00000080: db55 46bd afa3 43be 8f2d 7e3e c6ab 3fbf
00000090: 399f 89bd 1f82 31bd 6b6c 4d3e db64 093b
000000a0: 387e 8dbe 48e1 3dbe e46b 94be 4251 733e
000000b0: 1905 e93d 34e4 c2be 232f 773d 0943 aa3b
000000c0: e28c bfbd 69d4 ff3d 1a45 2ebd 8f9d 91bd
000000d0: fc90 ec3d 04cf 69bc ae87 a33c e5ee a1bb
000000e0: b371 99be 77f3 41bf 255d 853e a749 e1bc
000000f0: 4ee9 42bd 393a ff3d fb37 08be 4594 683d
00000100: 7f9b 0b3c 353b 713d b3d2 823e 8ee8 d4bd
00000110: 17e6 c4be a37d d0be 4df6 f5be 9aa3 bebc
00000120: dc7b b33d 0f50 3ebd 1c58 b1be 9302 073d
00000130: efd1 083e c178 45bd d0de 0abb 6c5b c1bd
00000140: 6ec7 753b 8535 793e 2cfb dcbe 3ceb a1bc
00000150: beac b6bd eba4 7f3e 3846 24bc bb6d 8ebd
00000160: f661 85be e040 863e 6815 50bf 1547 63bc
00000170: 63aa 3ebf e410 b0bd 1bc0 0abf 0bd9 b4bd
00000180: 4d0e a8be fbba 4bbd 7eef a1bc 1da8 143e
00000190: d64c 32bd fc2d 4abd ba20 d43b 2552 5dbe
000001a0: 3a45 5a3d 70bd 97bd 12c7 5639 8f8e 913d
000001b0: a110 24be d423 f83b a1ff 1dbe dce6 32bd
000001c0: f393 e3ba 27d4 eb3b 7bff 94bd a0e4 aebe
000001d0: 88ba 51bd 7f91 8abd 7b88 c3bc afd6 03be
000001e0: 130e 97bd 8b17 2fbf 191f 81be b65a 10bf
000001f0: ad07 c1bd e87e 87be 7502 0abe d938 c2bc
00000200: 3e2b b5be 8cdb 10bf 7fb3 edba aa9e 93bc
00000210: 39ee 4a3e e25b e3be a33a f0bc 05f3 a6bc
00000220: 8c2e 98be 43a2 00bf 0876 1bbd dd74 1e3e
00000230: 8ec3 123e c111 263e 7dbe 59bd 93ff b93b
00000240: 6f5a 03be c0f6 84be 11a4 36bd 0db9 0abf
00000250: cde5 51be 1193 88be 8955 ffbd 3a27 c6bd
00000260: ea1f 10bd 1ed8 aabc 07a4 f53c 6345 aebc
00000270: 023d eabc d440 44bd 19d9 0dbe 3040 e3bd
00000280: 144e db3d 003d 82bd 07b0 34be d1a4 8abd
00000290: afa6 0d3e 6ccb 4d3e b519 4d3e aea8 9abc
000002a0: 8917 293e 127e 25be f94a 46be 9460 9f3b
000002b0: d77d f73d 60d9 ab3b 7293 abbc 04e6 83bd
000002c0: 5d72 7cbe 43d3 5ebd 7ad6 c4be b72d 223c
000002d0: 9802 c1bd b592 aebd 862e eebe bdaa e539
000002e0: 7a8e 403d c4d6 7cbd 000c ddbd 13c8 53bc
000002f0: 4d75 ce3e 3ddd db3a 6f17 03be 868f 7bbd
00000300: c1a5 babc 1ff1 64bd d2a2 8cbd 640f 12bd
00000310: e223 b5be 21fa e23c 54d5 abbd 0133 f93b
00000320: 3e92 23be a1d1 19bf ee48 aabe 25be 793e
00000330: 52ae 37bd d68d d2bd 9fc9 20be 183c 8fbd
00000340: 8a5c 393e 8a64 ccbe e120 9dbe 55e7 443c
00000350: a4b2 3cbc 5425 023e 631c 1ebf 712f 3cbc
00000360: 0da9 88bd b05a a3be e1d3 9cbe afb6 a3be
00000370: f69c 2c3b ee27 58be 92df f63d 711d a9be
00000380: a303 c7bd 0cf7 b7bc 70a0 77be 5746 b73c
00000390: 0c14 253e a330 de3d eb1b 10be 1946 e9bc
000003a0: 2c0d f5bb d6a6 b73d c0ce 1e3d 4f17 98be
000003b0: 6186 94bd 4d28 99bd 2a5b 1fbf ec81 a1be
000003c0: 0b66 62be 2423 81be 387f 1d3e 849a 31be
000003d0: 0384 e1bd 7dd4 11be 4b27 fbbd 5f93 77bc
000003e0: 9a4c 503e 1c15 a5be 7b8e 24bf 7a2b bd3e
000003f0: 80c2 73be dcd4 5e3e a314 493e 25c4 0cbf

pi.l3.weight f4 [6, 256]
0.037375573 0.028186841 0.22543307 0.028574571 -0.035477187 -0.027908603 -0.02476098 1.3314618
0.026383234 0.032226007 0.32245156 -0.006316713 0.87467843 0.009144031 -0.060802788 0.07754735
0.31256288 0.03669757 -0.012163914 0.22217354 0.13362332 0.008765162 0.24669115 0.01822791
-0.086104825 -0.27389675 0.03334224 -0.04503143 0.0007405074 -0.07228474 0.22019234 0.12947586
0.24769065 0.26864955 0.008543956 0.86541617 0.0028855556 -0.005731255 -0.15760204 -0.021902012
-0.88696396 0.12975723 -0.24652514 1.3631895 -0.059579484 0.06545141 -0.11472342 -0.046761215
-0.024213646 0.32095477 -0.0040874225 -0.0213668 0.7842198 -0.006096453 -0.008132146 -0.026040617
0.1005435 0.67531466 -0.16194037 -0.031110268 -0.031339396 0.015756462 -0.007828925 -0.1978832
0.41324455 -0.09129742 0.0399783 -0.03807831 0.0009169437 0.16393256 0.103931315 0.06822878
0.30934936 1.2420866 0.2064819 -0.12411011 0.10434225 -0.04721254 0.046647172 -0.075629234
0.027563078 0.43722746 -0.100730576 0.096114464 -0.048406363 0.031380866 -0.05475168 -0.015769312
1.4903939 -0.22052155 0.26266223 0.114851154 -0.13981456 -0.014655982 0.024392322 0.015953973
-0.107136294 0.0110431295 0.18267266 0.15310551 0.06239306 -0.07940106 -0.025386773 -0.0017478225
0.2558894 -0.01844217 -0.08657636 -0.11310302 -0.56071484 -0.3914665 -0.04513406 -0.035355024
-0.03324902 -0.026748694 -0.0063728355 -0.24447414 -0.5297026 -0.033508424 0.061896764 0.009874597
-0.04188609 0.14173603 0.18938792 0.9232756 -0.014702371 0.09656423 -0.30909106 -0.010127586
-0.14033641 0.35576412 -0.055206124 0.0959374 -0.22979042 -0.54061204 0.062425278 0.04613559
-0.32634833 0.13327706 -0.009319555 -0.21144876 -0.10737274 -0.083946474 0.036311675 0.032054707
-0.27148753 -0.3293003 -0.11742216 0.08228481 0.09170172 0.78425753 0.3039935 -0.16055496
0.16412757 -0.13923393 0.66612935 -0.047831267 0.044124898 -0.036190048 0.76083964 -0.023701916
0.19567351 0.04734019 0.28781742 0.025267106 0.06475175 0.10192195 -0.008384954 0.15382855
-0.21798104 -0.08054873 0.35656342 0.035590872 -0.0007838158 0.055505097 0.05631754 0.036372688
0.072723076 0.12997817 -0.37032607 0.35092413 -0.035543986 0.0026816216 0.013057023 -0.03265795
0.048304833 0.05741835 -0.0007817925 0.060048643 -0.1371327 0.042005915 0.51442766 0.023985686
0.18156001 0.4355183 -0.050766397 0.048293315 -0.09518405 0.021379836 0.040949438 -0.017570052
-0.22425766 0.19469407 0.08354532 0.25276694 -0.0114553375 0.043533858 0.28964442 0.13421297
-0.055697657 -1.2583916 0.21311115 -0.006516436 -0.31196818 -0.20852132 0.23747346 -0.014320036
-0.01339466 0.78714633 -0.034896724 0.5814374 -0.01729313 -0.1748529 0.3306088 -0.18565165
0.17030536 -0.14638434 0.106172375 0.052229535 0.22138524 0.29428634 -0.012881201 -0.005159753
0.08583085 0.3158732 -0.0064175567 0.047041796 -0.1864442 0.0014166249 -0.13502876 -0.016826093
0.5180358 0.22849613 0.1377779 -0.12081376 0.026687304 0.10929873 -0.18770391 -0.021939289
-0.2231345 -0.2699713 -0.014360228 -0.019736432 0.009528589 0.09910786 0.8364334 0.4778302
00000000: 2117 193d 17e8 e63c edd7 663e 3815 ea3c
00000010: 8750 11bd 95a0 e4bc 8ad7 cabc 576d aa3f
00000020: a721 d83c 6bff 033d 5f18 a53e 6efc cebb
00000030: edea 5f3f d9d0 153c 580c 79bd 25d1 9e3d
00000040: 3e08 a03e 3150 163d 274b 47bc 7681 633e
00000050: 8dd4 083e c19b 0f3c 9b9c 7c3e b352 953c
00000060: ba57 b0bd 323c 8cbe df91 083d e072 38bd
00000070: 9c1e 423a 060a 94bd 1a7a 613e 5295 043e
00000080: 9ea2 7d3e 6f8c 893e f3fb 0b3c ea8b 5d3f
00000090: 971b 3d3b 40cd bbbb 6e62 21be d96b b3bc
000000a0: 1210 63bf 14df 043e 1671 7cbe fe7c ae3f
000000b0: 9e09 74bd 640b 863d 1df4 eabd b088 3fbd
000000c0: b25b c6bc 2f54 a43e c9ef 85bb 6d09 afbc
000000d0: a1c2 483f c1c4 c7bb b13c 05bc 2253 d5bc
000000e0: c0e9 cd3d 6ce1 2c3f b2d3 25be f6da febc
000000f0: bd5d 00bd b213 813c e444 00bc e5a1 4abe
00000100: ca94 d33e 24fa babd 49c0 233d 01f8 1bbd
00000110: 0d5f 703a f0dd 273e f1d9 d43d 88bb 8b3d
00000120: 0a63 9e3e b2fc 9e3f fe6f 533e 712d febd
00000130: 64b1 d53d f061 41bd 1b11 3f3d 80e3 9abd
00000140: f7cb e13c 47dc df3e d54b cebd a9d7 c43d
00000150: c045 46bd 3989 003d 4c43 60bd a52e 81bc
00000160: 3ac5 be3f 67d0 61be aa7b 863e 1537 eb3d
00000170: 8c2b 0fbe a51f 70bc 68d2 c73c e8b1 823c
00000180: 466a dbbd 3eee 343c 8b0e 3b3e b1c7 1c3e
00000190: de8f 7f3d 069d a2bd ecf7 cfbc 3117 e5ba
000001a0: ef03 833e 0914 97bc f24e b1bd 8ea2 e7bd
000001b0: 028b 0fbf 4c6e c8be 7ede 38bd 6ed0 10bd
000001c0: 2030 08bd 1420 dbbc 38d3 d0bb 6e57 7abe
000001d0: 979a 07bf 2140 09bd 7687 7d3d 10c9 213c
000001e0: c090 2bbd 4023 113e e8ee 413e ca5b 6c3f
000001f0: 37e2 70bc 78c3 c53d 2f41 9ebe 2dee 25bc
00000200: 59b4 0fbe b726 b63e d11f 62bd d47a c43d
00000210: 2e4e 6bbe 8d65 0abf a6b1 7f3d acf8 3c3d
00000220: 2117 a7be c879 083e 0cb1 18bc 0686 58be
00000230: 3de6 dbbd 21ec abbd 8dbb 143d cc4b 033d
00000240: 6a00 8bbe 0d9a a8be 087b f0bd f084 a83d
00000250: 1dce bb3d 1ac5 483f 09a5 9b3e 8568 24be
00000260: 0f11 283e 5793 0ebe 7487 2a3f b8ea 43bd
00000270: 4fbc 343d 043c 14bd 63c6 423f 852a c2bc
00000280: a35e 483e c9e7 413d ce5c 933e f6fc ce3c
00000290: 919c 843d 75bc d03d 0c61 09bc 3b85 1d3e
000002a0: 6c36 5fbe bcf6 a4bd 7b8f b63e bcc7 113d
000002b0: fd78 4dba 5059 633d 39ad 663d 87fb 143d
000002c0: d6ef 943d ff18 053e 619b bdbe 54ac b33e
000002d0: 9296 11bd 25be 2f3b 20ed 553c 58c4 05bd
000002e0: 4adb 453d 812f 6b3d 35f1 4cba 91f5 753d
000002f0: 846c 0cbe 650e 2c3d 88b1 033f a17d c43c
00000300: deea 393e 41fc de3e 6df0 4fbd 36cf 453d
00000310: dbef c2bd c424 af3c 99ba 273d 12ef 8fbc
00000320: cda3 65be e25d 473e cf19 ab3d ab6a 813e
00000330: 2baf 3bbc 8f50 323d 464c 943e 206f 093e
00000340: 3a23 64bd fa12 a1bf cf39 5a3e d487 d5bb
00000350: 4bba 9fbe 9d86 55be 3e2c 733e 969e 6abc
00000360: 4775 5bbc 6c82 493f deef 0ebd 15d9 143f
00000370: 52aa 8dbc a30c 33be 8e45 a93e 771b 3ebe
00000380: 8764 2e3e c7e5 15be e770 d93d a3ee 553d
00000390: d0b2 623e b3ac 963e ac0b 53bc 2513 a9bb
000003a0: 16c8 af3d 22ba a13e 5e4a d2bb e6ae 403d
000003b0: 3aeb 3ebe 0bae b93a fb44 0abe e0d6 89bc
000003c0: ff9d 043f e4fa 693e a615 0d3e 346d f7bd
000003d0: 559f da3c 03d8 df3d 7435 40be 06ba b3bc
000003e0: 5f7d 64be ae39 8abe 2947 6bbc 4cae a1bc
000003f0: cd1d 1c3c 10f9 ca3d 8020 563f 29a6 f43e

pi.l3.bias f4 [6]
0.055237066 -0.12158537 -0.26569128 -0.10280909 -0.0050736633 -0.06922023
00000000: 4340 623d c001 f9bd b008 88be 928d d2bd
00000010: f940 a6bb 56c3 8dbd

q1.l1.weight f4 [256, 23]
-0.58636767 -1.589085 0.8145911 0.6076493 -2.139533 0.37601405 1.8401476 -0.09331207
-0.4480092 -0.28891596 0.27548563 0.13524811 0.2690161 0.16783798 0.037638742 0.22357102
-0.053063687 0.024922473 1.1970867 -0.53312016 0.043044593 0.03091723 -0.6714803 -0.0052813925
1.822029 -1.0935754 -0.14799184 -0.6545259 -1.6982832 1.5979471 -0.054565128 -0.30014974
-0.1517461 0.70658326 -0.25673753 -0.17385077 -0.0020285223 -0.26153865 -0.13186736 0.059960905
0.10454957 0.036684956 0.11211019 -0.013196503 0.2164988 -0.071283884 -0.32340905 0.13483709
-0.51320046 2.1715138 0.22992152 -0.09232594 1.4546753 -1.8200998 0.6320845 0.490775
-0.4226342 -0.08644069 0.10951824 0.085772336 0.15857214 0.03260224 -0.03213887 0.8178763
0.42979828 0.6283525 0.4444513 -0.46642783 0.004936798 -0.36041063 -1.4377904 0.9670892
0.8267945 1.3384976 0.8043432 0.6694368 -0.44783983 -0.84204805 0.48281416 0.5707644
0.011389452 0.09995093 -0.08633437 -0.15065405 -0.4387551 0.071901076 -0.12449649 -0.26751196
-1.1663618 0.123165496 -1.081675 -0.4876348 -1.3378984 -1.9432759 -1.3413525 0.3945472
-0.10762526 -1.6894262 0.19407113 0.2699474 0.31546617 -0.300946 0.0865715 -0.03725129
-0.049109783 0.005102592 0.017164085 -0.024914445 0.036638144 0.54975647 0.32213107 0.3474326
0.7918199 -0.22603221 0.5728857 -0.5372625 -0.89119196 0.32599232 -0.2756099 -0.90921247
0.072379544 0.2537169 -2.0614905 -1.2893788 -0.6474211 0.29849544 -0.039598215 -0.22745216
0.04429445 0.030397037 0.39204115 0.13111697 0.22681214 -0.5518356 -0.09001852 -0.07647093
-0.70321345 -0.043031342 -0.5538999 -0.18912444 0.71627927 1.5246553 -0.30169138 1.134543
1.7302754 0.33887318 -0.9330919 -0.8987198 0.23886104 0.104048185 -0.04031325 -0.04695418
0.3084005 0.10154709 0.39032507 -0.83401746 -1.088405 -0.2049501 0.22474664 -1.1994915
-0.12337944 -0.09923569 2.111501 -1.3980916 0.2946419 2.2971811 -0.25711402 1.0774242
-0.8517518 0.078845434 0.1734449 -0.27896655 0.08471421 0.19151174 -0.1043845 0.30315927
0.19572404 -0.001747825 -0.39174572 -0.040086027 -0.6690685 -0.09739404 0.03732046 0.320361
-1.3590456 -3.1066875 1.2196441 -1.2942028 0.1835642 0.40771386 1.4608135 0.081643544
-0.3874953 1.1487516 0.014511625 0.14488532 -0.13333786 0.018828603 -0.19916347 -0.060409576
0.019444266 0.36219636 -0.21337472 0.23663208 0.22530238 -0.30352885 0.23444237 -2.3940406
3.093454 -1.6758099 -0.8797422 0.21645428 0.6338509 -0.508999 -0.19192302 0.047439117
0.341054 0.24696656 -0.10913424 0.024281193 0.045376424 -0.024988834 -0.015960347 -0.012364096
0.1791639 0.12949884 -0.008440464 0.30117545 0.1282427 -0.030885266 -0.82624567 1.8306943
0.044213746 0.41268018 0.013139823 -1.199341 -0.1490548 1.0359389 0.028135289 -0.04168279
-0.37853032 0.22630306 0.08150344 0.016127301 0.080968395 0.14291836 -0.046372194 0.26053518
-0.1483846 0.2276397 -0.03663936 -0.18566911 -0.4203516 0.23508988 2.4680011 -1.4328858
00000000: 311c 16bf 2367 cbbf 0b89 503f e88e 1b3f
00000010: 1cee 08c0 ea84 c03e f589 eb3f 661a bfbd
00000020: 7661 e5be cbec 93be 740c 8d3e 7b7e 0a3e
00000030: 7abc 893e b8dd 2b3e 152b 1a3d cdef 643e
00000040: 4f59 59bd 372a cc3c 233a 993f 907a 08bf
00000050: 874f 303d 2146 fd3c 22e6 2bbf 880f adbb
00000060: 3f38 e93f 47fa 8bbf 2c8b 17be 028f 27bf
00000070: 5861 d9bf 8889 cc3f af7f 5fbd 3aad 99be
00000080: 5463 1bbe a4e2 343f 1a73 83be f005 32be
00000090: f5f0 04bb 65e8 85be 3d08 07be 9199 753d
000000a0: 161e d63d f742 163d 079a e53d 2536 58bc
000000b0: ddb1 5d3e 49fd 91bd df95 a5be bc12 0a3e
000000c0: 1b61 03bf 15fa 0a40 8c70 6b3e 6215 bdbd
000000d0: cd32 ba3f 08f9 e8bf 4ad0 213f dc46 fb3e
000000e0: 8363 d8be d107 b1bd 194b e03d 68a9 af3d
000000f0: bc60 223e ed89 053d 0ca4 03bd 5760 513f
00000100: 850e dc3e b6db 203f 1f8f e33e a1cf eebe
00000110: ddc4 a13b be87 b8be 8409 b8bf 2893 773f
00000120: cea8 533f e453 ab3f 70e9 4d3f 3660 2b3f
00000130: 434b e5be 7690 57bf 6b33 f73e 9e1d 123f
00000140: d39a 3a3c 13b3 cc3d 13d0 b0bd 0e45 1abe
00000150: 82a4 e0be df40 933d 04f8 febd 54f7 88be
00000160: 584b 95bf 313e fc3d 5474 8abf 45ab f9be
00000170: 4140 abbf 44bd f8bf 70b1 abbf 1702 ca3e
00000180: a26a dcbd 1e3f d8bf 95ba 463e 8c36 8a3e
00000190: c884 a13e 9815 9abe 664c b13d cf94 18bd
000001a0: 5727 49bd a533 a73b b29b 8c3c 6119 ccbc
000001b0: e111 163d d7bc 0c3f 5dee a43e b0e2 b13e
000001c0: b5b4 4a3f fd74 67be a3a8 123f 098a 09bf
000001d0: 2825 64bf 77e8 a63e be1c 8dbe 26c2 68bf
000001e0: ba3b 943d 2ee7 813e 76ef 03c0 5d0a a5bf
000001f0: 64bd 25bf 65d4 983e bd31 22bd 38e9 68be
00000200: 196e 353d 3503 f93c 9eb9 c83e 8743 063e
00000210: 7141 683e 1945 0dbf a15b b8bd ca9c 9cbd
00000220: cc05 34bf a241 30bd 62cc 0dbf d6a9 41be
00000230: 145e 373f e827 c33f 4b77 9abe b438 913f
00000240: aa79 dd3f c980 ad3e 1cdf 6ebf 8012 66bf
00000250: fd97 743e 3717 d53d 821f 25bd 0753 40bd
00000260: ace6 9d3e ecf7 cf3d b0d8 c73e 2b82 55bf
00000270: db50 8bbf 70de 51be fc23 663e f088 99bf
00000280: 5cae fcbd 153c cbbd d522 0740 aaf4 b2bf
00000290: 4edb 963e 0405 1340 73a4 83be 09e9 893f
000002a0: 680c 5abf b779 a13d 8a9b 313e b4d4 8ebe
000002b0: a57e ad3d a71b 443e 8ac7 d5bd b137 9b3e
000002c0: e26b 483e 4617 e5ba e592 c8be 3f31 24bd
000002d0: 1348 2bbf 8776 c7bd 57dd 183d 5b06 a43e
000002e0: 35f5 adbf f8d3 46c0 4c1d 9c3f 70a8 a5bf
000002f0: 41f8 3b3e dfbf d03e f0fb ba3f bb34 a73d
00000300: c965 c6be 4b0a 933f 2bc2 6d3c d15c 143e
00000310: b889 08be 713e 9a3c 82f1 4bbe 0870 77bd
00000320: 9549 9f3c cd71 b93e e77e 5abe ae4f 723e
00000330: abb5 663e 2268 9bbe a911 703e f637 19c0
00000340: 26fb 4540 f080 d6bf c936 61bf 31a6 5d3e
00000350: 0d44 223f c24d 02bf 7887 44be 854f 423d
00000360: a19e ae3e cde4 7c3e c681 dfbd 5ae9 c63c
00000370: a1dc 393d 62b5 ccbc 46bf 82bc c792 4abc
00000380: be76 373e 589b 043e df49 0abc ab33 9a3e
00000390: 0e52 033e 1903 fdbc d684 53bf 3154 ea3f
000003a0: 7919 353d d14a d33e 6a48 573c 0284 99bf
000003b0: d2a1 18be a599 843f fa7b e63c 93bb 2abd
000003c0: bace c1be fdbb 673e 47eb a63d 671d 843c
000003d0: c2d2 a53d 3159 123e c5f0 3dbd de64 853e
000003e0: 22f2 17be 621a 693e 2713 16bd 0b20 3ebe
000003f0: 5338 d7be 67bb 703e bbf3 1d40 cd68 b7bf

q1.l1.bias f4 [256]
-1.4575924 -1.2857741 -0.40496576 -0.5937589 -1.2790709 -0.9880423 -1.2692372 -0.5880385
-0.29827824 1.5643239 1.0832571 0.37394163 0.62984914 -1.0203532 -0.6188722 -0.4632943
-1.3174052 -0.5297668 -0.47816086 -1.6974194 -1.6029516 0.5792086 0.5280241 0.034114383
-0.7474383 0.5230414 1.0789459 -1.9067568 -1.2372348 0.079957224 1.6551291 -0.9849254
0.006111478 -1.233901 1.9702567 1.375187 1.7577863 -0.12523721 0.22233641 -1.2877485
-0.0006891217 -1.0506575 -1.4093528 1.6388718 -0.08664326 -1.1407529 -1.0332696 -0.90720195
-1.3306348 -0.7255286 -0.28721577 -1.192046 -2.3524883 -0.3761115 -1.1536677 -1.5621504
-0.15251899 0.65413564 -0.19293949 1.7142797 0.36003977 -0.4473686 -1.9794413 -1.4479195
-0.96271574 1.4169536 -1.0829494 0.35243845 -0.59767056 -0.7149736 -1.1472108 -1.1840928
-0.0206744 0.10814437 -1.284487 -1.4437501 -0.6678663 -0.16087645 1.7338716 1.7965044
-1.427199 1.8482282 -1.2330607 -0.7422667 -1.7394173 1.7646893 1.2243348 -1.296936
1.876178 1.0595618 -1.233881 0.21290769 -1.21482 -1.4412962 -0.0887482 -0.15874563
-1.6834128 -1.1629517 -0.08733469 1.1007568 1.4366224 1.7616466 -0.60413027 1.169527
-1.8368803 2.2304 0.076505944 -1.460423 1.2495533 -0.7778062 1.4297706 -1.1289595
-1.0372906 -1.8140284 -1.524747 1.6972746 0.4855901 -0.22106862 -1.3902308 -1.323687
-0.48614195 -0.64075744 0.6565635 0.30663055 -0.3758436 -0.5289796 -1.4345335 -1.3312991
0.21139282 0.5821178 -0.7935621 -1.8010635 -1.3384874 -0.93779683 -1.2405419 -1.8446566
1.108081 -1.5661772 0.1853475 -1.1132993 -0.53299505 1.5148871 2.087517 -1.7199212
-1.6846005 -1.2477449 -0.6957179 1.7477161 0.7136656 -1.1512358 -0.36011237 0.36974952
0.8278062 -0.8073844 -0.35253185 1.4711044 -0.44693783 1.3708994 1.7534119 1.0830588
-0.0074699437 0.33939114 -1.892112 0.18290378 -1.0444932 1.1500771 -2.0308285 0.25612617
-1.4619169 0.07991574 1.4914739 -1.1728839 -1.0246818 -1.7087274 -0.43854532 -0.7904453
-1.991826 1.5957924 -1.5420995 -1.0355227 -1.0900546 -0.89173603 0.072716855 0.4516546
-0.0914862 0.7417318 1.4512724 -1.2557822 -0.8608368 1.6857219 -0.70203394 0.8921067
-0.42646003 -1.5229704 0.4540762 -1.8696771 -1.0786402 -1.3073363 -1.4864801 0.48609838
-0.69115716 1.0414753 0.5588417 -1.3298181 2.0778444 -1.331567 0.15819424 -0.2549117
-1.2333328 -1.487068 -1.2428734 -0.31006864 -0.14842664 -1.4712415 -0.90912884 -0.7444494
0.41512358 -0.78257906 2.318707 -2.002034 1.864739 -1.8001671 -0.00025027484 2.0250711
0.35609835 -0.8016624 -0.15467389 -1.016875 -2.2076502 0.24017909 -1.1990166 -0.31369942
-0.6960037 -1.4631587 -0.0966834 0.0010284316 -1.323456 -1.4929892 1.9434305 -0.78435177
-1.1248481 0.723466 -0.3624925 -1.6689428 0.8752017 0.34826857 -1.5821943 -0.28797966
-0.9615931 -1.3124455 -0.032218494 -1.0950339 -0.678546 0.8036544 -2.1107676 1.7737737
00000000: 6392 babf 3f94 a4bf ac57 cfbe 9500 18bf
00000010: 98b8 a3bf 57f0 7cbf 5d76 a2bf b189 16bf
00000020: edb7 98be c43b c83f 2ba8 8a3f 4775 bf3e
00000030: cb3d 213f ef9a 82bf 696e 1ebf e934 edbe
00000040: bca0 a8bf cc9e 07bf 80d1 f4be 0a45 d9bf
00000050: 852d cdbf 0447 143f 962c 073f 86bb 0b3d
00000060: 1e58 3fbf 0be6 053f e61a 8a3f 9b10 f4bf
00000070: b65d 9ebf 9dc0 a33d 45db d33f 1224 7cbf
00000080: cb42 c83b 78f0 9dbf 5f31 fc3f 2106 b03f
00000090: 24ff e03f 2f3e 00be 28ac 633e f1d4 a4bf
000000a0: 2da6 34ba f27b 86bf ac65 b4bf 8dc6 d13f
000000b0: 0672 b1bd 3104 92bf 2e42 84bf 633e 68bf
000000c0: 3e52 aabf 3ebc 39bf f20d 93be f794 98bf
000000d0: 2b8f 16c0 b091 c0be 62ab 93bf 8bf4 c7bf
000000e0: f02d 1cbe 6f75 273f ee91 45be 846d db3f
000000f0: 2257 b83e 7f0d e5be 555e fdbf 6d55 b9bf
00000100: 8a74 76bf bc5e b53f 169e 8abf d072 b43e
00000110: f000 19bf 8308 37bf ced7 92bf 5a90 97bf
00000120: 5c5d a9bc cc7a dd3d 126a a4bf cecc b8bf
00000130: 49f9 2abf ccbc 24be 81ef dd3f dbf3 e53f
00000140: 75ae b6bf be92 ec3f efd4 9dbf 3105 3ebf
00000150: 3aa5 debf 57e1 e13f 01b7 9c3f 0002 a6bf
00000160: 9a26 f03f b99f 873f d0ef 9dbf 7904 5a3e
00000170: 397f 9bbf 657c b8bf 9ec1 b5bd 378e 22be
00000180: 127a d7bf 9adb 94bf 88dc b2bd 99e5 8c3f
00000190: 3ee3 b73f a37d e13f 48a8 1abf 10b3 953f
000001a0: e51e ebbf e0be 0e40 26af 9c3d 24ef babf
000001b0: 5df1 9f3f 4f1e 47bf b902 b73f bf81 90bf
000001c0: f0c5 84bf 1532 e8bf e92a c3bf 4b40 d93f
000001d0: 449f f83e d05f 62be 15f3 b1bf 936e a9bf
000001e0: 99e7 f8be ae08 24bf 8c14 283f aefe 9c3e
000001f0: 936e c0be 356b 07bf cb9e b7bf 0268 aabf
00000200: 5c77 583e ac05 153f e326 4bbf 4089 e6bf
00000210: 8e53 abbf 7413 70bf 14ca 9ebf b51d ecbf
00000220: 99d5 8d3f 7f78 c8bf bccb 3d3e 9780 8ebf
00000230: 5d72 08bf d2e7 c13f e199 0540 6126 dcbf
00000240: fda0 d7bf 1bb6 9fbf 911a 32bf 29b5 df3f
00000250: cab2 363f b25b 93bf a660 b8be cf4f bd3e
00000260: 1beb 533f beb0 4ebf 0e7f b4be 264d bc3f
00000270: 09d5 e4be a279 af3f cd6f e03f aca1 8a3f
00000280: 6ec6 f4bb adc4 ad3e ba30 f2bf 214b 3b3e
00000290: f4b1 85bf ba35 933f 18f9 01c0 f822 833e
000002a0: 1820 bbbf ddaa a33d 9ee8 be3f 0f21 96bf
000002b0: c628 83bf 94b7 dabf 0389 e0be a05a 4abf
000002c0: 28f4 febf ed42 cc3f 8463 c5bf 028c 84bf
000002d0: e986 8bbf d048 64bf 93ec 943d 463f e73e
000002e0: 1e5d bbbd 23e2 3d3f 4bc3 b93f 79bd a0bf
000002f0: cd5f 5cbf bcc5 d73f 7fb8 33bf 1b61 643f
00000300: f858 dabe b2f0 c2bf ad7c e83e 9451 efbf
00000310: e210 8abf cc56 a7bf fb44 bebf e3e1 f83e
00000320: adef 30bf 104f 853f 4010 0f3f 7b37 aabf
00000330: 67fb 0440 ca70 aabf acfd 213e c983 82be
00000340: d9dd 9dbf 3f58 bebf 7a16 9fbf 51c1 9ebe
00000350: 27fd 17be a451 bcbf abbc 68bf 3c94 3ebf
00000360: 148b d43e 1a57 48bf b265 1440 5321 00c0
00000370: c4af ee3f e06b e6bf 5237 83b9 c49a 0140
00000380: 8652 b63e bf39 4dbf d562 1ebe f628 82bf
00000390: 244a 0dc0 82f1 753e 6079 99bf 369d a0be
000003a0: 4c2d 32bf c948 bbbf f201 c6bd 70cc 863a
000003b0: 0267 a9bf 451a bfbf 55c2 f83f 47cb 48bf
000003c0: 06fb 8fbf 1135 393f 9e98 b9be eb9f d5bf
000003d0: 380d 603f 4250 b23e 5885 cabf 1272 93be
000003e0: f72a 76bf 37fe a7bf 8af7 03bd 122a 8cbf
000003f0: 31b5 2dbf 4bbc 4d3f d116 07c0 040b e33f

q1.l2.weight f4 [256, 256]
-0.15399855 -0.55925447 -0.11197694 0.0069417413 -0.86663514 0.3459171 0.17811741 0.61022484
-0.24140087 0.29077643 -0.0361697 0.1033769 0.07784563 -0.44847336 0.02546118 0.29784334
-1.2799867 -0.34203482 0.11092514 -0.74477154 -0.11573319 -0.58219683 -0.74049217 -0.1892875
-0.042395625 -0.9115915 0.22027208 1.1044714 0.26933962 0.32936737 -0.1384214 0.08526066
0.20216072 -0.050601855 0.40467545 -0.796227 -0.21542811 0.33959663 -0.73856956 -0.059506033
-0.13278878 0.13066015 1.015995 -0.23014797 0.24271475 0.81393474 0.6771214 -0.49416026
-0.6273303 -0.33079302 0.13991348 0.04005042 -0.12368501 -0.052200846 -1.0456998 0.73808086
0.12041236 0.114050746 -0.1660639 -0.104927495 -0.54168266 -0.296417 -0.5207847 -0.55051094
0.46386692 0.24216591 0.55380183 0.07530444 -0.7039366 0.29236642 0.20080233 -0.2250547
-0.6046361 0.1737769 0.26527533 -0.115085445 -0.8230476 -1.2117616 -0.23095006 0.10557721
-0.2834279 -0.4689715 0.9689853 -0.25750756 -0.55199856 -0.1873963 0.3967296 -0.704579
0.13214126 0.0968101 -1.9132192 -0.91850275 -1.0212057 -2.6106517 -0.8771166 -0.76930785
-1.3860058 -0.7116717 0.47215447 -0.2571391 0.14572105 0.24656117 -0.42672268 0.666071
-0.5990372 -0.078287825 0.16057959 -2.39412 0.5346204 -0.35523474 -0.1917958 -1.1244353
-0.10323173 -0.7026243 -0.45362374 0.27124837 0.16043814 -0.19329399 0.261925 -0.72840756
-1.0311841 -0.16028772 0.024916379 0.1067245 0.09762853 -0.015462063 0.65035135 -1.3969239
-0.26137006 0.628214 0.018500796 -1.2319024 0.36388358 0.08223897 0.1655747 0.052815966
0.947242 0.7206861 -0.23694819 -1.6010784 -0.9176248 0.48586616 -0.06352303 0.3360421
-0.062845446 -0.06634987 0.41154236 -0.3621591 0.34035844 -0.5129212 -1.234365 0.20507693
-0.6712297 0.020754643 -0.26485097 0.0888004 0.1932354 -0.031866495 0.5281227 0.025274156
0.07644313 0.052446418 -0.50917053 -0.27429372 0.38696223 -0.04697915 0.3622325 -0.34400395
0.30399907 -0.09330908 0.1780434 1.2702494 -0.19555733 0.025553456 -1.1235852 0.043309916
-0.3358783 -0.02634401 0.35756153 -0.036720477 -0.6049038 -0.48762822 0.34407485 -0.01041966
-0.42980957 -0.29978204 -0.17663197 -0.1242266 -0.5354132 -0.421716 -0.8548221 0.07729357
-0.16620287 0.28927588 -0.060374197 -1.1872104 0.09157676 -0.2326065 -0.2692427 -0.07815552
-0.13323668 -0.30700332 0.038518623 -0.40167293 -0.13427994 -0.9523034 0.5876114 -1.1792471
-0.63588715 0.38506618 -1.3685741 0.16586156 -0.44295806 -0.79370844 -0.19688974 0.048119385
0.13780737 -0.93963987 -0.054789063 0.6435856 -0.47934848 -0.058069672 0.7363578 -0.25450885
-0.06806636 0.47006342 0.3961212 0.06611264 -0.462784 -0.37349704 0.62576765 -0.5646551
0.60378313 -0.45854813 -0.23340629 -0.27054292 0.33374083 -1.7605095 -0.8838124 -0.1056419
-1.0089116 0.6393853 -0.2000723 -0.8387578 0.7506041 -0.205573 -0.39570442 0.5262635
-0.020523375 -1.494243 1.0658753 0.6872502 -0.46810472 0.6353848 0.124051146 -0.29149622
00000000: ccb1 1dbe 4d2b 0fbf 2a54 e5bd 8c77 e33b
00000010: cddb 5dbf 0c1c b13e 6964 363e b237 1c3f
00000020: ca31 77be a6e0 943e ae26 14bd 45b7 d33d
00000030: 886d 9f3d 4d9e e5be f793 d03c ec7e 983e
00000040: 9bd6 a3bf 301f afbe b82c e33d 59a9 3ebf
00000050: 8605 edbd da0a 15bf e590 3dbf 95d4 41be
00000060: 09a7 2dbd 0f5e 69bf 018f 613e 525f 8d3f
00000070: e2e6 893e d7a2 a83e 57be 0dbe 249d ae3d
00000080: 3803 4f3e e443 4fbd 9f31 cf3e 88d5 4bbf
00000090: 3099 5cbe 9cdf ad3e e512 3dbf 99bc 73bd
000000a0: c8f9 07be c6cb 053e 200c 823f e9ab 6bbe
000000b0: 378a 783e 075e 503f d457 2d3f 9302 fdbe
000000c0: b898 20bf b45d a9be 7b45 0f3e e90b 243d
000000d0: 914e fdbd 8ed0 55bd 7ed9 85bf def2 3c3f
000000e0: c19a f63d 7093 e93d a80c 2abe 3ae4 d6bd
000000f0: b7ab 0abf f8c3 97be 2552 05bf 49ee 0cbf
00000100: f77f ed3e 57fa 773e f5c5 0d3f 3739 9a3d
00000110: 3035 34bf 0db1 953e 209f 4d3e bd74 66be
00000120: 6ec9 1abf 92f2 313e 2bd2 873e ebb1 ebbd
00000130: 3fb3 52bf 011b 9bbf 2c7e 6cbe dd38 d83d
00000140: 761d 91be 081d f0be 6c0f 783f 08d8 83be
00000150: c74f 0dbf d1e4 3fbe 2420 cb3e 4a5f 34bf
00000160: 0a50 073e 6044 c63d 5ee4 f4bf ff22 6bbf
00000170: deb6 82bf eb14 27c0 b78a 60bf 5cf1 44bf
00000180: a368 b1bf 1e30 36bf 3bbe f13e bca7 83be
00000190: e637 153e 887a 7c3e 657b dabe a183 2a3f
000001a0: 805a 19bf 5e55 a0bd fa6e 243e 4339 19c0
000001b0: e2dc 083f 54e1 b5be 1e66 44be 7fed 8fbf
000001c0: 286b d3bd 30df 33bf 5f41 e8be 11e1 8a3e
000001d0: e549 243e dcee 45be 091b 863e eb78 3abf
000001e0: d7fd 83bf 7722 24be 6f1d cc3c 6092 da3d
000001f0: 77f1 c73d 9854 7dbc 6d7d 263f 67ce b2bf
00000200: 4cd2 85be a2d2 203f fb8e 973c faae 9dbf
00000210: f34e ba3e e86c a83d 6a8c 293e 8e55 583d
00000220: 747e 723f e27e 383f 8ca2 72be 23f0 ccbf
00000230: 75e9 6abf 73c3 f83e 5d18 82bd b60d ac3e
00000240: 1db5 80bd 71e2 87bd aeb5 d23e eb6c b9be
00000250: 7643 ae3e ce4e 03bf acff 9dbf b0ff 513e
00000260: b6d5 2bbf a405 aa3c 8c9a 87be fcdc b53d
00000270: 80df 453e 7186 02bd 0d33 073f bf0b cf3c
00000280: 378e 9c3d 0ed2 563d 0059 02bf 3a70 8cbe
00000290: ea1f c63e 366d 40bd 8a76 b93e 4921 b0be
000002a0: c4a5 9b3e d518 bfbd 0251 363e 8897 a23f
000002b0: 2e40 48be 7b55 d13c a4d1 8fbf bd65 313d
000002c0: 3ef8 abbe 65cf d7bc 4e12 b73e 3668 16bd
000002d0: fada 1abf 68aa f9be 942a b03e 39b7 2abc
000002e0: 0010 dcbe 087d 99be 03df 34be 846a febd
000002f0: d710 09bf 29eb d7be 9fd5 5abf 174c 9e3d
00000300: 1631 2abe f81b 943e ef4a 77bd 83f6 97bf
00000310: 998c bb3d 6630 6ebe 2eda 89be 0010 a0bd
00000320: 326f 08be 8a2f 9dbe b4c5 1d3d 13a8 cdbe
00000330: ae80 09be 28ca 73bf b36d 163f 92f1 96bf
00000340: 80c9 22bf 6527 c53e 702d afbf 9dd7 293e
00000350: 66cb e2be 7a30 4bbf 779d 49be d518 453d
00000360: 601d 0d3e 3d8c 70bf 7f6a 60bd 07c2 243f
00000370: 2a6d f5be 77da 6dbd f281 3c3f fc4e 82be
00000380: 6066 8bbd 27ac f03e 66d0 ca3e 1066 873d
00000390: 06f2 ecbe 013b bfbe 4f32 203f 3d8d 10bf
000003a0: 8891 1a3f d2c6 eabe 0f02 6fbe 9a84 8abe
000003b0: 14e0 aa3e 6058 e1bf 8841 62bf c85a d8bd
000003c0: 0424 81bf c1ae 233f c1df 4cbe d5b8 56bf
000003d0: 9727 403f ba81 52be c599 cabe 34b9 063f
000003e0: a320 a8bc 5b43 bfbf 9a6e 883f a1ef 2f3f
000003f0: 6cab efbe 94a8 223f 870e fe3d fe3e 95be
